{
    "format": "layers-model",
    "generatedBy": "keras v2.4.0",
    "convertedBy": "TensorFlow.js Converter v3.11.0",
    "modelTopology": {
        "keras_version": "2.4.0",
        "backend": "tensorflow",
        "model_config": {
            "class_name": "Sequential",
            "config": {
                "name": "sequential",
                "layers": [
                    {
                        "class_name": "InputLayer",
                        "config": {
                            "batch_input_shape": [null, 224, 224, 3],
                            "dtype": "float32",
                            "sparse": false,
                            "name": "input_1"
                        }
                    },
                    {
                        "class_name": "Conv2D",
                        "config": {
                            "name": "conv2d",
                            "trainable": true,
                            "dtype": "float32",
                            "filters": 32,
                            "kernel_size": [3, 3],
                            "strides": [1, 1],
                            "padding": "valid",
                            "activation": "relu"
                        }
                    },
                    {
                        "class_name": "MaxPooling2D",
                        "config": {
                            "name": "max_pooling2d",
                            "trainable": true,
                            "dtype": "float32",
                            "pool_size": [2, 2],
                            "padding": "valid",
                            "strides": [2, 2]
                        }
                    },
                    {
                        "class_name": "Flatten",
                        "config": {
                            "name": "flatten",
                            "trainable": true,
                            "dtype": "float32"
                        }
                    },
                    {
                        "class_name": "Dense",
                        "config": {
                            "name": "dense",
                            "trainable": true,
                            "dtype": "float32",
                            "units": 10,
                            "activation": "softmax"
                        }
                    }
                ]
            }
        }
    },
    "weightsManifest": [
        {
            "paths": ["group1-shard1of1.bin"],
            "weights": [
                {"name": "conv2d/kernel", "shape": [3, 3, 3, 32], "dtype": "float32"},
                {"name": "conv2d/bias", "shape": [32], "dtype": "float32"},
                {"name": "dense/kernel", "shape": [5408, 10], "dtype": "float32"},
                {"name": "dense/bias", "shape": [10], "dtype": "float32"}
            ]
        }
    ]
} 